classifiers/classifier_base_model.pth (torch, 7788 bytes, 2 tensors)

linear.weight f4 [3, 512]
0.12174085 -0.078211695 0.112471715 0.17614518 0.077425525 -0.010922122 0.047136318 0.07890213
-0.05421494 0.048936296 -0.027756302 -0.098689735 -0.07530955 -0.021308713 -0.14279835 -0.13358927
-0.07938806 0.096804865 -0.02151512 0.08314128 0.0067086313 0.011278011 0.16754673 -0.051404566
0.1343173 0.016902797 -0.1090696 -6.0902443e-05 0.029845338 -0.09363613 -0.02320799 0.0011009758
0.11554993 -0.079738274 -0.15310115 -0.06494306 0.030379372 0.014138532 0.06502775 0.09825471
-0.0075472663 -0.004703989 0.07638312 -0.06073759 -0.026311427 -0.03692807 -0.07665467 0.1655801
0.010226729 0.050955657 -0.06451351 -0.04488049 0.14821927 0.109326534 -0.14838484 -0.034129974
-0.12615827 -0.06291829 -0.0060547646 -0.08182409 0.11178704 0.09452371 -0.103871584 0.1219271
-0.03671244 -0.11763972 0.027450252 0.058060147 -0.0851552 0.11247213 -0.030315602 -0.10635017
-0.045748148 0.037259955 0.042182576 -0.08588426 -0.052480463 -0.084115066 0.10855641 -0.028893601
0.02273929 0.0529904 -0.16295522 0.045775224 -0.015058928 -0.055062696 0.1532508 -0.019120097
0.052487034 -0.01806793 0.051616054 0.02106814 0.020982813 -0.14387605 0.15706281 0.12317944
0.03075886 -0.08412774 0.12755589 0.012815388 0.111164585 0.0119147245 -0.098402195 -0.015421585
-0.0030313497 -0.011991072 -0.10516904 -0.07407627 -0.07515647 0.09224369 -0.11005189 -0.16085602
-0.0070958496 -0.039265722 0.06666242 -0.0014305367 0.053085495 -0.07172437 0.03492551 -0.028539333
0.08819399 0.11990691 0.067408025 -0.09123696 -0.017130548 -0.14921685 0.070996515 -0.15339033
0.04627303 -0.08939183 0.09587337 -0.15605848 0.055095896 -0.019731445 0.0077221575 -0.066896036
0.033601377 -0.13047017 -0.1026316 -0.113003455 0.008261137 0.10158852 0.1394331 -0.07574287
-0.03447747 0.07640496 -0.03806383 0.028612845 0.062946804 0.021460777 0.06451506 0.007966504
0.052520666 -0.013350683 0.11774143 0.095809534 -0.14961933 0.011941413 -0.07349161 0.028465983
0.06343305 0.07293643 0.07635949 0.09117806 0.050537538 0.010643953 0.08853593 0.11405647
-0.07067524 -0.049381044 0.02062778 -0.1323403 -0.016191252 -0.031002162 0.10084414 -0.09439652
0.03147702 0.02778409 -0.12196816 0.11291327 0.051641673 0.041858677 0.121523194 -0.08155859
-0.07930957 0.05732224 -0.017197527 0.17035316 0.023449622 0.0068670767 0.037016205 -0.018007869
-0.045454703 -0.10716111 0.10883124 0.07763284 0.00020598076 0.049576607 0.060092848 -0.10885022
-0.048168622 -0.057344012 -0.053847436 -0.1199878 0.07767515 -0.052977588 -0.07856651 0.10976323
0.07419624 0.092720635 0.1357887 -0.076728046 -0.014326622 -0.04652337 0.021352606 0.13375705
-0.06441049 -0.00088128966 0.0015188563 0.032204654 -0.029076241 0.011098089 0.046443496 0.019399775
0.00734693 0.014855156 0.093037695 0.030695012 -0.08064397 0.06306967 0.056324527 -0.031266555
0.036210626 -0.1575338 0.10816 0.08599872 -0.03723182 -0.063281484 0.06908335 0.00232103
0.0050027543 0.06486471 0.037866145 -0.16080783 -0.08657576 0.09279857 -0.041757055 0.052254673
-0.03812494 -0.11751321 -0.005564072 0.027191224 0.08781377 0.12643427 0.019535294 0.16640402
00000000: 4453 f93d 742d a0bd 9257 e63d 675f 343e
00000010: 4691 9e3d b3f2 32bc 0312 413d 7197 a13d
00000020: 7c10 5ebd 6d71 483d 2f61 e3bc d81d cabd
00000030: e53b 9abd 9c8f aebc bb39 12be a0cb 08be
00000040: 3596 a2bd a141 c63d 7a40 b0bc fa45 aa3d
00000050: 14d4 db3b 68c7 383c 5f91 2b3e 988d 52bd
00000060: 798a 093e bc77 8a3c e25f dfbd 8071 7fb8
00000070: 367e f43c 4dc4 bfbd af1e bebc 9e4e 903a
00000080: 71a5 ec3d d24d a3bd 8cc6 1cbe de00 85bd
00000090: 29de f83c 4da5 673c 452d 853d c439 c93d
000000a0: 0f4f f7bb eb23 9abb c16e 9c3d fbc7 78bd
000000b0: 108b d7bc e341 17bd 20fd 9cbd d48d 293e
000000c0: 038e 273c e1b6 503d a91f 84bd 9bd4 37bd
000000d0: cbc6 173e 97e6 df3d 32f2 17be dfcb 0bbd
000000e0: a22f 01be 4edb 80bd 0c67 c6bb 6393 a7bd
000000f0: 9bf0 e43d a695 c13d a0ba d4bd eab4 f93d
00000100: c95f 16bd 18ed f0bd 5adf e03c 7ad0 6d3d
00000110: d965 aebd ca57 e63d 6d58 f8bc 1ece d9bd
00000120: 6962 3bbd e59d 183d a3c7 2c3d 16e4 afbd
00000130: c1f5 56bd 8544 acbd d352 de3d 46b2 ecbc
00000140: bf47 ba3c 760c 593d bcdd 26be cd7e 3b3d
00000150: b9b9 76bc 6c89 61bd c7ed 1c3e c0a1 9cbc
00000160: a5fc 563d 3203 94bc 5b6b 533d 1897 ac3c
00000170: 26e4 ab3c 3e54 13be 13d5 203e 8145 fc3d
00000180: 01fa fb3c 2a4b acbd 039e 023e a2f7 513c
00000190: 42aa e33d fa35 433c 1787 c9bd d1aa 7cbc
000001a0: 9ca9 46bb 3476 44bc de62 d7bd 4db5 97bd
000001b0: a3eb 99bd 42ea bc3d e362 e1bd 71b7 24be
000001c0: 4d84 e8bb 18d5 20bd 4f86 883d d980 bbba
000001d0: 2d70 593d 3ae4 92bd 0d0e 0f3d 52cb e9bc
000001e0: 0d9f b43d c191 f53d 380d 8a3d 71da babd
000001f0: 5d55 8cbc 4dcc 18be 9f66 913d 5b12 1dbe
00000200: ca88 3d3d 1013 b7bd 4259 c43d cbcd 1fbe
00000210: 3cac 613d d7a3 a1bc 270a fd3b ca00 89bd
00000220: 99a1 093d f999 05be 8430 d2bd 5b6e e7bd
00000230: b859 073c a40d d03d 8dc7 0e3e 141f 9bbd
00000240: 3f38 0dbd 347a 9c3d d2e8 1bbd 7c65 ea3c
00000250: 41ea 803d 83ce af3c 7920 843d f185 023c
00000260: e91f 573d d3bc 5abc 6b22 f13d ca37 c43d
00000270: cf35 19be eba5 433c c582 96bd 7e31 e93c
00000280: 30e9 813d b25f 953d 5d62 9c3d 90bb ba3d
00000290: 7300 4f3d fa63 2e3c 5352 b53d 7096 e93d
000002a0: 2ebe 90bd c743 4abd 97fb a83c 3784 07be
000002b0: 84a3 84bc 3ff8 fdbc 5f87 ce3d f652 c1bd
000002c0: 0cee 003d 769b e33c 71ca f9bd 133f e73d
000002d0: 3886 533d 0174 2b3d 27e1 f83d 3108 a7bd
000002e0: 0e6d a2bd baca 6a3d d4e1 8cbc 0f71 2e3e
000002f0: 6c19 c03c 3705 e13b 4e9e 173d 3d85 93bc
00000300: b62e 3abd 4977 dbbd eae2 de3d f7fd 9e3d
00000310: 8afc 5739 d710 4b3d eb23 763d ddec debd
00000320: 764c 45bd 8ee1 6abd 218f 5cbd 2abc f5bd
00000330: 2614 9f3d 07ff 58bd 7ae7 a0bd 8bcb e03d
00000340: 33f4 973d 51e4 bd3d 310c 0b3e 9823 9dbd
00000350: 35ba 6abc 4a8f 3ebd a9eb ae3c 9cf7 083e
00000360: a6e9 83bd 5906 67ba 5c14 c73a 07e9 033d
00000370: 4c31 eebc c2d4 353c 893b 3e3d 47ec 9e3c
00000380: 84be f03b 0a63 733c 8c8a be3d 1b74 fb3c
00000390: aa28 a5bd ac2a 813d 8cb4 663d 5c11 00bd
000003a0: 9851 143d 8a50 21be fd82 dd3d 1920 b03d
000003b0: 6580 18bd b999 81bd 927b 8d3d 6c1c 183b
000003c0: 25ee a33b cad7 843d 8819 1b3d cfaa 24be
000003d0: a24e b1bd 2d0d be3d 7209 2bbd ff08 563d
000003e0: e628 1cbd c4aa f0bd d252 b6bb 21c0 de3c
000003f0: b5d7 b33d fc77 013e 7b08 a03c d165 2a3e

linear.bias f4 [3]
0.22422843 -0.21399677 -0.21627489
00000000: 239c 653e f821 5bbe 2a77 5dbe
