models/tsdae_model.pth (torch, 6192 bytes, 2 tensors)

linear.weight f4 [3, 384]
000000 59 6e 1d 3d ad 00 4f 3d 45 f5 59 3d d4 95 b2 3c
       0.038435314 0.050537754 0.053212423 0.02179996
000010 5e d8 8e bc e5 26 58 3d b9 3c 42 bc 59 c2 3d bd
       -0.017437156 0.052771468 -0.011855298 -0.046327922
000020 b4 1c 58 bb bf 77 80 3d ea 7c 22 bd 5e c1 1e 3d
       -0.0032976093 0.0627284 -0.03966991 0.038758628
000030 32 f3 82 3b 34 11 08 bc ae 9a 06 bb 2d 36 83 bb
       0.0039962763 -0.008304883 -0.0020538974 -0.004004261
000040 79 bf 74 3b a6 f8 3b ba 38 f3 aa 3c d1 01 bc 3d
       0.0037345572 -0.00071705354 0.020867929 0.09180034
000050 cc 73 c7 3c cb ab 77 bc 6a a8 c5 ba 65 91 a3 3c
       0.024347208 -0.015116642 -0.0015080099 0.01996679
000060 0f 2f bf bb 29 c6 91 3c 31 43 27 3c 48 3c 00 3c
       -0.0058344672 0.017794685 0.010208891 0.007826872
000070 7b 6c cd 3b f2 b8 4a bc 6c 99 82 3d e5 6a 2c 3d
       0.0062690354 -0.012373196 0.06376919 0.04209413
000080 3b 59 6b 3b ac 04 71 3c f1 93 bf 3d 9d 76 3c bd
       0.003591134 0.0147105865 0.093543895 -0.046011556
000090 d0 fe 43 3c 8e c8 ef 3c 07 a4 9d 3a a2 be 4d bd
       0.0119626075 0.029270437 0.0012027033 -0.05023063
0000a0 02 4a 01 bd 0f b2 11 bd f2 64 5f bd 63 18 4a 3a
       -0.03156472 -0.0355702 -0.05453963 0.00077093224
0000b0 9f 65 f3 bc 41 b8 c4 3c 8c 66 5f bc 38 db d8 3c
       -0.029711543 0.02401364 -0.013635289 0.02647172
0000c0 72 06 7e 3c 6c ea 45 3d c7 f3 0a 3d ec 81 84 bd
       0.015504466 0.048319265 0.03392389 -0.06470093
0000d0 7c 6a 2f bd 33 54 ad bc ee 40 c4 3a 76 0d 1b bd
       -0.04282616 -0.021158313 0.0014972964 -0.037854634
0000e0 97 0d 71 3d 67 47 ed 3b 5d b6 b1 3c eb 88 ea bb
       0.05885085 0.007241178 0.021693403 -0.007157435
0000f0 ad 02 21 bd 66 b9 03 3a d3 e9 b0 bc 30 f1 ef bc
       -0.039309192 0.000502488 -0.021595871 -0.029289812
000100 7c 3c 81 ba 53 5a 68 3d 0d 49 64 bd dc 3a 66 bd
       -0.0009859945 0.056726765 -0.05573373 -0.056208476
000110 14 f7 30 bc 3d 8d c1 bc 24 62 59 bc 67 0e 77 bd
       -0.0108010955 -0.023626918 -0.013268027 -0.06031647
000120 f0 64 7c bc 47 6e 6d bc 1f d8 bf bc 3d ee 3f 3d
       -0.015404925 -0.014491624 -0.023418484 0.04685806
000130 12 72 f9 bc 02 e7 7b 3d 6a 38 d3 bc 23 68 d5 3c
       -0.0304499 0.061499603 -0.025783736 0.026050633
000140 94 47 43 bd 34 c7 32 3d 0f 39 ca 3b 33 60 11 3d
       -0.047675684 0.043647006 0.0061713527 0.035492133
000150 fb 6a 06 3d b4 c5 3c 3c d4 66 82 3c 13 8a 81 3d
       0.03281687 0.0115217455 0.015918173 0.06325164
000160 c2 73 d8 b8 1f 14 27 bd df c6 67 bd 21 d1 3f bd
       -0.00010321244 -0.040790673 -0.056586143 -0.0468303
000170 d5 e1 a0 3c 03 12 49 bc 0a 04 01 3d a3 bd a2 3c
       0.019638935 -0.012272361 0.031497993 0.019865816
000180 ed 79 cf bc 81 a2 66 3d 6b 03 83 bd 2a 5f fa 3c
       -0.025326693 0.05630732 -0.06397136 0.030562956
000190 83 da 03 bd 99 d0 dc bc 5d 16 22 bd e7 c1 4d bc
       -0.03219081 -0.026954936 -0.03957211 -0.012558437
0001a0 b1 1e da bc 6f 84 7a 3c 25 25 78 bc 77 39 97 bd
       -0.026625963 0.015290364 -0.015145575 -0.073840074
0001b0 aa 6b 9c bc 0b 05 2c bd 10 f1 44 bd 55 97 2c bd
       -0.019094307 -0.041996997 -0.048081458 -0.04213651
0001c0 07 98 6c bd f5 85 14 bd ce a3 38 ba 22 8e 19 3c
       -0.057762172 -0.036260564 -0.0007043452 0.009372266
0001d0 12 15 c3 3b c5 fc 81 bc 3d 83 13 bb bd 04 c2 3a
       0.0059534395 -0.0158676 -0.0022508644 0.0014802438
0001e0 64 04 22 bd f4 ba 60 3d 27 b3 3f 3c 30 e7 5f bc
       -0.03955497 0.054865792 0.011700428 -0.013665959
0001f0 c2 f0 ae bc 65 68 86 3d 9b e5 14 bd 5f bc 8c 3c
       -0.021355037 0.065628804 -0.03635178 0.017179666
000200 42 17 c5 3b 70 70 db bb d5 02 03 3b b1 75 83 3b
       0.0060147354 -0.006696753 0.0019990702 0.0040118326
000210 60 5f f8 bc 32 df 5b 3d 86 7e 83 3d 77 91 93 3d
       -0.030318916 0.053679653 0.06420617 0.072054796
000220 8f 53 44 bd 7f 0a 50 3d 77 f8 4a ba 80 28 fe bc
       -0.04793125 0.05079126 -0.00077427126 -0.031025171
000230 13 88 91 bc 8a 86 5d bd c5 25 22 bb b3 b3 d2 bc
       -0.01776508 -0.054083385 -0.002474175 -0.025720453
000240 fa 5b d7 bc e1 61 9e bc 25 50 de 3c de 98 ea bb
       -0.026288975 -0.019333782 0.027137825 -0.0071593365
000250 73 74 92 3c 38 9f d0 3c d4 10 08 bd c3 ea 88 3d
       0.017877793 0.025466546 -0.033219174 0.06685402
000260 c8 9d 5d b9 21 2d 17 3d 28 21 9e bc 23 a0 a0 bc
       -0.0002113498 0.036908273 -0.01930292 -0.01960761
000270 55 27 55 bd d7 ab 65 3d 75 94 f1 bb 89 58 77 3d
       -0.052039463 0.056072082 -0.007372434 0.060387168
000280 d0 8a 92 bc 38 32 b9 38 bd b8 15 bc f3 9c 12 3c
       -0.017888457 8.8308414e-05 -0.009138283 0.008948552
000290 80 92 2e 3c 2a d9 df 3c 96 2a f9 bb 9a 04 8d bd
       0.0106550455 0.027325232 -0.0076039536 -0.06885643
0002a0 07 26 74 bd bc 76 81 3c 3d 45 60 bd 96 46 53 3d
       -0.05960658 0.015803687 -0.05475353 0.051580988
0002b0 8d 8c 9e 3a fd b8 db 3c c1 78 fe 3c 77 63 8c 3c
       0.0012096331 0.026821608 0.03106344 0.017137272
0002c0 e8 16 e6 3b b2 3a 15 bd fa 7b 0b 3d bb 96 61 bc
       0.0070217736 -0.03643293 0.03405378 -0.013768847
0002d0 1b 46 c6 bc 55 94 fa 3c d7 dc a0 bb 0c 73 60 3b
       -0.02420335 0.030588308 -0.0049091387 0.003424826
0002e0 cf 56 2b 3d 5d 09 d3 bc 9b f9 43 3d 37 db cb bc
       0.041830834 -0.0257613 0.047845464 -0.024884803
0002f0 48 11 31 bd 06 ff 19 bd 7a 21 fa 3a 9a 6f 55 bc
       -0.04322937 -0.037596725 0.0019083463 -0.013027096
000300 6e 9a 8b 3d 9e f4 19 3d d0 78 ba bc 6d 3f ba bc
       0.068165645 0.0375868 -0.022762686 -0.022735322
000310 3d ea c1 3b 5f 2c 7e bd c4 1b d6 bc 2c fa 50 3b
       0.005917816 -0.062054034 -0.026136287 0.0031887395
000320 b2 bf 1d 3c e4 53 3e bc d2 85 16 bd 21 1e 8a 3c
       0.009628223 -0.011616681 -0.036748715 0.01686007
000330 87 6c 31 bd 3a 24 5b 3b 8b 12 42 3c 53 0b d3 3c
       -0.04331639 0.003343834 0.011845241 0.025762236
000340 8b 29 8d bb 4d da 0c 3d eb 62 43 3c de 09 65 ba
       -0.004307931 0.034387875 0.011925439 -0.0008737127
000350 03 0e d8 3c 4b 3c 42 3b 04 97 e3 3c c1 92 d2 3c
       0.026373869 0.0029637988 0.02778197 0.025704743
000360 17 52 cc 3b d7 c9 1b 3d 3a 81 01 3d 5e 2f 9d 3b
       0.006235372 0.038034286 0.03161738 0.0047969064
000370 93 10 ac 3c f4 4d a0 3d 63 3c 57 ba b7 02 ac 3c
       0.021003997 0.078273684 -0.00082105974 0.020997388
000380 33 49 61 bc 49 9c ff 3c 4a 65 1e bd d2 57 6e bd
       -0.013750362 0.031202452 -0.038670816 -0.05818922
000390 2b 04 31 3d 44 e3 67 3d c2 fc c4 3b e0 bf 60 bd
       0.043216866 0.05661322 0.0060115764 -0.054870486
0003a0 8f e0 9d ba 3b bf be 3c 6c 22 c6 3c 6d eb 52 bd
       -0.0012045073 0.023284545 0.024186336 -0.05149405
0003b0 58 d8 0a 3d 2f b8 44 3d 41 66 b9 3b 3e fb 5e 3d
       0.033897728 0.048027214 0.0056579416 0.054438822
0003c0 9f 83 66 3b 56 b1 4e 3d c7 63 e1 3c 6d a4 93 bc
       0.0035173667 0.05046209 0.027513398 -0.01802274
0003d0 b5 24 0e 3d 2f b6 0f bd 59 85 76 bc f8 e4 1e 3d
       0.034702975 -0.035085853 -0.015046441 0.03879258
0003e0 ef 8a e3 3c dc 0a 4e bd 0c 2a 58 bd 2f d2 6b bd
       0.02777621 -0.050303325 -0.052774474 -0.057573494
0003f0 c0 93 70 3b ef e8 29 3d 0f 45 6e bc b6 60 a6 3c
       0.003670916 0.04148191 -0.014542832 0.020309787

linear.bias f4 [3]
000000 0e 7c 90 bb cf 21 24 bd 4e 6e 07 bd
       -0.0044093197 -0.040071305 -0.03306418
